…
me', \r\n                 activation ='relu'))\r\nmodel.add(MaxPool2D(pool_size=(2,2), strides=(2,2)))\r\nmodel.add(Dropout(0.25))\r\n\r\n\r\nmodel.add(Flatten())\r\nmodel.add(Dense(256, activation = \"relu\"))\r\nmodel.add(Dropout(0.5))\r\nmodel.add(Dense(10, activation = \"softmax\"))\r\n\r\n# Summarize the model\r\nmodel.summary()\r\nModel: \"sequential\"\r\n_________________________________________________________________\r\n Layer (type)                Output Shape              Param #   \r\n=================================================================\r\n conv2d (Conv2D)             (None, 28, 28, 32)        832       \r\n                                                                 \r\n conv2d_1 (Conv2D)           (None, 28, 28, 32)        25632     \r\n                                                                 \r\n max_pooling2d (MaxPooling2D  (None, 14, 14, 32)       0         \r\n )                                                               \r\n                                                                 \r\n dropout (Dropout)           (None, 14, 14, 32)        0         \r\n                                                                 \r\n conv2d_2 (Conv2D)           (None, 14, 14, 64)        18496     \r\n                                                                 \r\n conv2d_3 (Conv2D)           (None, 14, 14, 64)        36928     \r\n                                                                 \r\n max_pooling2d_1 (MaxPooling  (None, 7, 7, 64)         0         \r\n 2D)                                                             \r\n                                                                 \r\n dropout_1 (Dropout)         (None, 7, 7, 64)          0         \r\n                                                                 \r\n flatten (Flatten)           (None, 3136)              0         \r\n                                                                 \r\n dense (Dense)               (None, 256)               803072    \r\n                                                                 \r\n dropout_2 (Dropout)         (None, 256)               0         \r\n                                                                 \r\n dense_1 (Dense)             (None, 10)                2570      \r\n                                                                 \r\n=================================================================\r\nTotal params: 887,530\r\nTrainable params: 887,530\r\nNon-trainable params: 0\r\n_________________________________________________________________\r\n\r\nAfter the model is constructed, we need to set up how we will optimize the algorithm as well as ho
…
